model_files/depression_model.pth (torch, 16610 bytes, 6 tensors)

fc1.weight f4 [64, 20]
-0.042544574 -0.08270252 -0.11814517 0.17025195 0.029138573 -0.13151574 0.18274547 0.10830108
0.13574004 0.01330829 0.00319349 -0.031409416 -0.054976534 -0.05584493 -0.08536546 -0.059169922
-0.03697819 0.09111484 -0.12738541 -0.0029323278 0.09866636 0.083882965 -0.119184196 -0.032745432
-0.17187792 0.20116527 0.12005653 0.14402615 0.053714503 -0.096682966 -0.14410515 -0.04892504
0.071548894 0.14795554 -0.032257922 -0.030829811 -0.06119037 -0.1758947 -0.15045148 -0.12142835
0.035489067 -0.14114496 0.22562571 0.10844257 0.097856015 0.090732045 0.19616757 -0.20556015
0.1796953 0.06528548 0.18512899 -0.3277148 0.2668605 0.074918 -0.21065986 -0.08534003
0.09118142 0.23851208 0.05584728 -0.041861705 0.2066284 0.09791012 -0.16711466 -0.16212706
-0.15213591 0.013959141 0.17874819 -0.19422959 0.12741518 0.014583736 0.14988734 -0.13796906
0.22828287 -0.104082815 0.08005954 -0.21950983 0.047982313 0.14380005 0.03144381 0.11201642
0.14167286 0.03870864 -0.113732144 0.026167244 0.1263893 -0.10984772 -0.18992312 -0.036218848
-0.13855638 0.08398818 0.027115839 -0.38380605 0.41319808 -0.19928361 0.15811716 -0.03118612
0.053909514 0.44441456 0.188911 -0.13559063 -0.08458995 -0.20078701 -0.06695331 -0.16598722
-0.16898672 -0.054280855 -0.21860437 -0.0623547 0.033613387 -0.05360781 -0.24201016 -0.11433708
0.25603032 0.1034205 -0.18167293 0.13224864 -0.09418223 -0.04189347 0.09260449 0.07906296
0.20035107 -0.11580119 -0.020876884 -0.11691326 0.060091455 -0.011721446 0.08139076 0.109244026
-0.07013559 0.08458718 -0.022395475 -0.064864285 0.19683337 -0.119211815 -0.15380317 -0.060512457
0.050265875 -0.05467868 -0.08944518 -0.15734625 -0.09948822 -0.09488702 -0.20791087 0.084117346
-0.16605523 -0.03834138 0.16167438 -0.18513925 -0.18225768 -0.15750813 -0.13062447 -0.11766559
0.03949582 0.16958472 -0.11639902 -0.0026765831 -0.020366129 -0.011351629 -0.13051617 -0.17158441
-0.012905079 0.21719193 -0.06957943 -0.008379597 -0.13533817 -0.013423297 0.17463648 -0.0460981
-0.026810586 -0.0027278017 0.1414705 -0.16951856 0.21534444 -0.1255269 0.18404509 -0.17323822
0.23279327 0.39893436 0.20656621 0.06639156 -0.1595905 0.11618231 -0.23077892 -0.20936991
0.07243407 -0.20694202 -0.04008874 -0.043853942 -0.13023864 0.12812477 0.06940787 -0.32965758
-0.031937886 -0.223706 0.06649177 -0.120924234 0.07471574 -0.076989055 0.13000803 -0.06528276
-0.16914536 0.2041219 0.15091127 -0.16246086 -0.05042837 -0.051924054 -0.19299352 -0.242659
0.011535275 -0.056888767 0.16314107 -0.14416178 0.3226732 -0.027917607 0.09089754 -0.0040580267
0.15192625 0.052405164 0.10120358 -0.1483546 -0.032834366 -0.12620145 0.028759507 -0.03406993
-0.18452431 -0.09867023 -0.010666507 0.050714884 0.15566683 -0.05076505 0.07660556 0.27813435
0.10261307 -0.12231841 -0.14515977 0.062217947 -0.04296408 0.08218307 -0.20550953 -0.09037497
0.2009602 0.06128675 0.19130237 -0.05515554 0.14991319 0.17466982 0.1978234 0.18061867
-0.08427545 -0.13144073 -0.20612705 0.16452377 -0.17746973 0.043397095 -0.1788685 -0.056169603
00000000: 3843 2ebd f05f a9bd 18f6 f1bd 8756 2e3e
00000010: 04b4 ee3c 10ac 06be a121 3b3e f5cc dd3d
00000020: 70ff 0a3e 040b 5a3c df49 513b 29a7 00bd
00000030: 132f 61bd a7bd 64bd 16d4 aebd 295c 72bd
00000040: 7176 17bd 6b9a ba3d 5271 02be 4c2c 40bb
00000050: 9711 ca3d d5ca ab3d d816 f4bd 1320 06bd
00000060: c400 30be 45fe 4d3e 33e0 f53d 977b 133e
00000070: bd03 5c3d b801 c6bd 4d90 13be 9f65 48bd
00000080: 3a88 923d a881 173e e220 04bd cd8e fcbc
00000090: c1a2 7abd be1d 34be f40f 1abe 6daf f8bd
000000a0: fc5c 113d 4e88 10be 6d0a 673e 2317 de3d
000000b0: bc68 c83d b9d1 b93d 27e0 483e 5c7e 52be
000000c0: 0b02 383e 65b4 853d 7492 3d3e 3cca a7be
000000d0: f1a1 883e 9c6e 993d 38b7 57be c1c6 aebd
000000e0: 53bd ba3d 833c 743e 1ec0 643d 2e77 2bbd
000000f0: 6596 533e 1a85 c83d 1b20 2bbe a304 26be
00000100: 84c9 1bbe e2b4 643c c409 373e 1fe4 46be
00000110: 2079 023e 9ff0 6e3c 117c 193e c347 0dbe
00000120: fcc2 693e 5f29 d5bd 42f6 a33d 2fc7 60be
00000130: 1a89 443d 5240 133e 39cb 003d dd68 e53d
00000140: b112 113e f38c 1e3d 66ec e8bd b05c d63c
00000150: 326c 013e d7f7 e0bd 357b 42be 375a 14bd
00000160: b9e1 0dbe ff01 ac3d 0922 de3c 3a82 c4be
00000170: b38e d33e 0111 4cbe 77e9 213e 097a ffbc
00000180: 39d0 5c3d 4e8a e33e e371 413e 45d8 0abe
00000190: 7f3d adbd 1c9b 4dbe d11e 89bd 8ef8 29be
000001a0: db0a 2dbe 9a55 5ebd d3d9 5fbe a467 7fbd
000001b0: 31ae 093d dd93 5bbd 83d1 77be 8f29 eabd
000001c0: 6816 833e 21ce d33d 7808 3abe 306c 073e
000001d0: 9de2 c0bd 7d98 2bbd 6ca7 bd3d c3eb a13d
000001e0: d528 4d3e 2d29 edbd 0006 abbc 3870 efbd
000001f0: 7522 763d 4f0b 40bc 33b0 a63d 55bb df3d
00000200: 40a3 8fbd 0b3c ad3d b776 b7bc 91d7 84bd
00000210: b08e 493e 5325 f4bd 947e 1dbe e9db 77bd
00000220: 97e3 4d3d c0f6 5fbd 092f b7bd 601f 21be
00000230: 7bc0 cbbd 2054 c2bd 96e6 54be b745 ac3d
00000240: 620a 2abe da0b 1dbd f88d 253e 2595 3dbe
00000250: c2a1 3abe d049 21be 6cc2 05be a8fa f0bd
00000260: 5ec6 213d 9ea7 2d3e 9c62 eebd 9d69 2fbb
00000270: ded6 a6bc 2ffc 39bc 08a6 05be d3b3 2fbe
00000280: d36f 53bc 9067 5e3e a97f 8ebd 944a 09bc
00000290: 1796 0abe 63ed 5bbc e8d3 323e 5cd1 3cbd
000002a0: e0a1 dbbc ebc4 32bb a5dd 103e 4696 2dbe
000002b0: 4183 5c3e 208a 00be 5176 3c3e 5c65 31be
000002c0: 5c61 6e3e 2041 cc3e 1886 533e 4cf8 873d
000002d0: b16b 23be fef0 ed3d 4f51 6cbe 1165 56be
000002e0: 5058 943d 9ce8 53be 1734 24bd 31a0 33bd
000002f0: 475d 05be 2433 033e b725 8e3d e1c8 a8be
00000300: 4dd1 02bd 3013 65be d62c 883d 20a7 f7bd
00000310: 9104 993d 70ac 9dbd d320 053e f8b2 85bd
00000320: 7134 2dbe 5505 513e 7c88 1a3e 245c 26be
00000330: fa8d 4ebd 51ae 54bd 18a0 45be 9a7b 78be
00000340: 73fe 3c3c 3204 69bd 740e 273e 259f 13be
00000350: 6c35 a53e 77b3 e4bc 7d28 ba3d 32f9 84bb
00000360: 8e92 1b3e cca6 563d d343 cf3d 45ea 17be
00000370: 547d 06bd f43a 01be 0f99 eb3c e98c 0bbd
00000380: f1f3 3cbe 9e13 cabd 93c2 2ebc 69ba 4f3d
00000390: 2067 1f3e 03ef 4fbd 60e3 9c3d a067 8e3e
000003a0: cd26 d23d 1382 fabd c3a4 14be 3fd8 7e3d
000003b0: 1afb 2fbd 994f a83d 1771 52be 8316 b9bd
000003c0: 83c8 4d3e d107 7b3d c5e4 433e c7ea 61bd
000003d0: d882 193e a5dc 323e 3892 4a3e 1af4 383e
000003e0: 9b98 acbd 6698 06be f812 53be eb78 283e
000003f0: a0ba 35be 27c1 313d 4e29 37be 1912 66bd

fc1.bias f4 [64]
-0.116037056 -0.027807143 -0.2015626 -0.08767061 0.20774065 0.121035606 0.2064229 0.06395923
0.047652643 -0.20399188 -0.07859708 0.14869334 -0.061148882 0.14848448 0.08728996 -0.04851826
-0.13828969 0.121121496 0.10433102 0.11168279 -0.096115254 0.029259684 0.17166698 0.17270161
0.21651334 -0.04083342 0.16493972 -0.087245986 -0.094219215 0.008409282 0.021180987 -0.033822715
-0.31078276 -0.23918283 0.07969757 0.111227766 -0.20864917 0.06489196 0.14711958 0.1110139
-0.05828259 -0.17078164 0.0658823 0.115552746 -0.0046821646 -0.07646633 0.21418516 0.13580862
0.14670342 -0.18403575 -0.13958877 0.16389653 -0.14447051 0.02923199 -0.14012277 0.13961327
-0.2863325 0.21220873 0.092627004 -0.0077994834 0.010567976 -0.20505475 0.1660645 0.0432655
00000000: d6a4 edbd cecb e3bc 6d66 4ebe a68c b3bd
00000010: f7b9 543e 84e1 f73d 8660 533e 0ffd 823d
00000020: 6b2f 433d 3fe3 50be 82f7 a0bd 1143 183e
00000030: 4077 7abd 510c 183e 14c5 b23d 15bb 46bd
00000040: d09b 0dbe 8c0e f83d 80ab d53d f2b9 e43d
00000050: 13d8 c4bd 01b2 ef3c 78c9 2f3e b1d8 303e
00000060: acb5 5d3e f240 27bd f5e5 283e 06ae b2bd
00000070: 01f6 c0bd 16c7 093c c083 ad3c b089 0abd
00000080: eb1e 9fbe 58ec 74be 7b38 a33d 62cb e33d
00000090: 21a8 55be 13e6 843d 84a6 163e 415b e33d
000000a0: bab9 6ebd 62e1 2ebe 4ded 863d eba6 ec3d
000000b0: d86c 99bb 619a 9cbd 5b53 5b3e 6a11 0b3e
000000c0: 6c39 163e de73 3cbe 5cf0 0ebe 7ed4 273e
000000d0: 14f0 13be ed77 ef3c 587c 0fbe c8f6 0e3e
000000e0: 2c9a 92be 3f4d 593e 3ab3 bd3d cf92 ffbb
000000f0: 4e25 2d3c dff9 51be d00c 2a3e 2a37 313d

fc2.weight f4 [32, 64]
0.09350201 -0.103504494 -0.09378262 -0.018389918 -0.12853426 -0.08343845 -0.12355359 0.12678178
0.11654445 0.001970357 -0.040186737 -0.020350043 -0.02982357 -0.033028122 -0.054770693 -0.04713056
-0.07986121 0.024902146 0.046653185 0.09839366 0.025929779 0.020420006 0.10743657 0.073166125
0.031202361 0.06811863 0.022961987 0.09174727 0.107545234 0.044211052 0.06460028 0.036324285
0.122078285 0.062493954 0.087303616 -0.062095825 0.06550679 0.11664782 -0.012983222 0.047575526
0.015792914 0.024612246 -0.010420193 -0.053781986 0.10975139 0.11248576 -0.10558102 -0.038329598
0.09311683 0.07759858 -0.10402774 -0.05431038 0.05075187 -0.03558616 0.04459268 -0.110526174
0.0040005953 -0.02094849 0.12666929 -0.07869875 -0.034606352 -0.101403385 0.061565775 0.03261906
-0.123714805 -0.06054277 0.1280653 0.0598291 0.121693656 -0.03281145 0.020313652 -0.09971868
0.10270208 -0.057322726 0.10460554 -0.09697599 0.033441577 -0.08898425 -0.0053081773 -0.03656361
-0.012084331 -0.06900482 -0.12632057 -0.13752623 -0.0020800338 0.009809724 0.12980331 0.08406944
0.14930023 0.029786495 -0.038801897 0.0055191 -0.12813416 -0.021380685 -0.18003872 0.08630334
-0.225412 -0.107839756 -0.09479388 -0.07125419 -0.037385188 -0.045978114 -0.05314555 -0.22331782
0.061120655 -0.10595148 0.032722477 -0.15130846 0.072965175 0.04680146 0.01493069 -0.10428611
0.054335225 -0.03106006 -0.07656245 0.10427341 -0.05342248 0.09447814 0.10025248 -0.08717738
-0.17302613 0.11069453 0.17915161 0.08460139 -0.051349528 -0.047196332 -0.038397264 -0.057732504
0.06019557 -0.09702933 0.07181801 0.08265559 0.076139264 -0.0011738933 -0.09024202 -0.04681326
-0.06030642 0.040273685 0.04670421 -0.011757438 -0.030297324 -0.095385954 -0.039469082 -0.113788106
0.021054342 -0.11482339 0.10730595 -0.07480841 0.07359865 0.088283665 -0.06514983 0.11455915
0.075519495 -0.102144435 -0.014984392 0.09057597 0.06285665 -0.08739905 0.054483354 0.026908986
-0.00062309817 -0.035894305 0.04554519 -0.08696404 0.08877192 0.06336437 0.0011406336 0.027271718
-0.04662823 0.069179386 -0.09783639 0.005568036 0.113027856 -0.008825262 0.022438211 0.07117227
-0.085186206 -0.065050125 0.107188754 -0.10462897 0.05877005 0.11186529 -0.0758417 -0.121207125
-0.04748715 -0.009427746 -0.12946266 0.047780592 0.049786042 0.04973942 0.056502808 0.09259677
-0.079120904 0.0052182013 -0.0074263266 0.07720811 -0.15750644 0.054861072 -0.049113784 0.106658146
-0.13276008 0.09011309 0.0072484557 -0.08023492 -0.019718047 0.0351276 0.06990516 0.06986315
0.11663268 0.12867059 0.13585962 -0.07380926 -0.13147834 0.13398874 -0.07837662 -0.022597447
0.12125984 -0.045844436 0.044715703 0.12625262 -0.08729315 0.036413368 0.05271333 -0.052373756
0.03917798 0.015242846 0.06090674 0.05782036 0.03149138 -0.098796785 -0.0860121 -0.015965872
-0.13006501 -0.103003755 0.07194873 -0.03361102 0.09044071 0.14717664 -0.05824083 -0.06537744
0.011086404 0.1336434 0.10199339 -0.004604077 -0.016360782 -0.13873862 -0.04415271 0.1100802
0.14077334 0.016722744 0.054682985 0.033542916 -0.09482348 0.104003094 0.05485136 -0.050032873
00000000: fb7d bf3d 2afa d3bd 1a11 c0bd 74a6 96bc
00000010: 7c9e 03be c7e1 aabd aa09 fdbd 15d3 013e
00000020: dbae ee3d 1b21 013b d99a 24bd 22b5 a6bc
00000030: 8f50 f4bc 7f48 07bd 3c57 60bd f90b 41bd
00000040: 468e a3bd 96ff cb3c 6917 3f3d 9d82 c93d
00000050: b06a d43c db47 a73c b407 dc3d 1fd8 953d
00000060: 189c ff3c c881 8b3d c71a bc3c fee5 bb3d
00000070: ad40 dc3d a616 353d 274d 843d c6c8 143d
00000080: 2e04 fa3d a9f9 7f3d 3dcc b23d 3158 7ebd
00000090: 6d28 863d 0de5 ee3d 94b7 54bc 8ede 423d
000000a0: 2460 813c 9f9f c93c 75b9 2abc 804a 5cbd
000000b0: 56c5 e03d ef5e e63d dd3a d8bd 7fff 1cbd
000000c0: 09b4 be3d 01ec 9e3d 7f0c d5bd 9074 5ebd
000000d0: 31e1 4f3d cbc2 11bd d0a6 363d 8c5b e2bd
000000e0: 6d17 833b 2b9c abbc 98b5 013e cf2c a1bd
000000f0: 64bf 0dbd 94ac cfbd 652c 7c3d 909b 053d
00000100: 305e fdbd b2fb 77bd 8d23 033e 5c0f 753d
00000110: 863a f93d 4d65 06bd d168 a63c 4f39 ccbd
00000120: 7855 d23d 3ccb 6abd 6e3b d63d 599b c6bd
00000130: 09fa 083d 603d b6bd 38f0 adbb b9c3 15bd
00000140: 5cfd 45bc 6652 8dbd 2e5a 01be add3 0cbe
00000150: 2d51 08bb f7b8 203c 29eb 043e 992c ac3d
00000160: 29e2 183e cf02 f43c bdee 1ebd 91d9 b43b
00000170: 9a35 03be 8c26 afbc 125c 38be cebf b03d
00000180: 67d2 66be 17db dcbd 4b23 c2bd b7ed 91bd
00000190: 3621 19bd 8c53 3cbd 26af 59bd 6dad 64be
000001a0: a759 7a3d 17fd d8bd 0108 063d 9bf0 1abe
000001b0: c46e 953d e3b2 3f3d da9f 743c f593 d5bd
000001c0: 9d8e 5e3d ab71 febc c6cc 9cbd 4c8d d53d
000001d0: 88d1 5abd c17d c13d 2c51 cd3d 0e8a b2bd
000001e0: c32d 31be d0b3 e23d 8573 373e 7e43 ad3d
000001f0: e253 52bd f150 41bd 7346 1dbd eb78 6cbd
00000200: a18f 763d 50b7 c6bd 5215 933d 5547 a93d
00000210: e7ee 9b3d 53dd 99ba cfd0 b8bd 43bf 3fbd
00000220: dd03 77bd 05f6 243d ea4c 3f3d 45a2 40bc
00000230: 1832 f8bc b659 c3bd 55aa 21bd bd09 e9bd
00000240: 287a ac3c 8728 ebbd 39c3 db3d 2735 99bd
00000250: e4ba 963d 11ce b43d 466d 85bd fd9d ea3d
00000260: f7a9 9a3d 1a31 d1bd 1881 75bc e57f b93d
00000270: fdba 803d 46fe b2bd f029 5f3d 3c70 dc3c
00000280: 6957 23ba e805 13bd 988d 3a3d 341a b2bd
00000290: 0dce b53d 2ec5 813d 5081 953a f068 df3c
000002a0: 3efd 3ebd ecad 8d3d 725e c8bd 1274 b63b
000002b0: 267b e73d d597 10bc 57d0 b73c c4c2 913d
000002c0: 1b76 aebd 0039 85bd c785 db3d b747 d6bd
000002d0: ddb8 703d a119 e53d e552 9bbd 713b f8bd
000002e0: e381 42bd d576 1abc dc91 04be 95b5 433d
000002f0: 73ec 4b3d 90bb 4b3d 7d6f 673d 60a3 bd3d
00000300: 240a a2bd 72fd aa3b 8b58 f3bb 491f 9e3d
00000310: 5e49 21be 01b6 603d 892b 49bd 966f da3d
00000320: 42f2 07be 368d b83d 7484 ed3b 3552 a4bd
00000330: be87 a1bc f5e1 0f3d 702a 8f3d 6914 8f3d
00000340: 1ddd ee3d 39c2 033e c91e 0b3e 4f29 97bd
00000350: 42a2 06be 5834 093e ec83 a0bd 481e b9bc
00000360: 1457 f83d 60c7 3bbd d027 373d 5e48 013e
00000370: c0c6 b2bd 2f26 153d efe9 573d dd85 56bd
00000380: 1779 203d 21bd 793c 5979 793d 0bd5 6c3d
00000390: 1bfd 003d f855 cabd 1d27 b0bd dcca 82bc
000003a0: c32f 05be a2f3 d2bd db59 933d b5ab 09bd
000003b0: fb38 b93d 79b5 163e f08d 6ebd 9be4 85bd
000003c0: c0a3 353c d1d9 083e e9e1 d03d ccdd 96bb
000003d0: 0c07 86bc 7f11 0ebe 79d9 34bd ba71 e13d
000003e0: e326 103e 23fe 883c 44fb 5f3d 4c64 093d
000003f0: d032 c2bd 93ff d43d d2ab 603d 45ef 4cbd

fc2.bias f4 [32]
-0.071980886 0.1028085 -0.118152134 0.062673435 -0.0008645553 0.13255519 -0.07475084 0.010499912
0.09686082 0.10989985 0.0032009592 0.03662001 -0.11982436 -0.008507526 -0.08638684 0.07140007
-0.051086664 0.01455953 0.073992975 0.08613635 0.2311235 0.0054168766 0.12219607 -0.085395984
0.0015985966 0.25667268 -0.00171889 0.057161637 -0.0031359405 0.19153625 -0.027637606 0.0062391507
00000000: b76a 93bd 438d d23d bff9 f1bd ee5a 803d
00000010: 53a3 62ba 8cbc 073e f816 99bd d307 2c3c
00000020: f75e c63d 2c13 e13d 2fc7 513b ddfe 153d
00000030: 7966 f5bd 2663 0bbc 95eb b0bd 333a 923d
00000040: 4040 51bd 188b 6e3c a189 973d 4168 b03d
00000050: a4ab 6c3e 0e80 b13b ef41 fa3d 17e4 aebd
00000060: 0088 d13a 9a6a 833e 614c e1ba 5222 6a3d
00000070: 5a84 4dbb 1422 443e 4368 e2bc ca71 cc3b

fc3.weight f4 [2, 32]
-0.13485901 -0.19614002 -0.0058930907 0.3195685 0.3011727 -0.31033424 0.17216678 0.11862276
0.31965858 -0.28759882 0.2298296 -0.13970786 -0.00024990833 0.19932836 0.06227259 -0.07353438
-0.27112257 0.33701694 0.12272526 0.37770182 0.24768198 0.22621453 -0.13856731 0.0031003954
0.21382508 -0.5068966 0.027297061 0.1777457 -0.27525327 0.2124288 -0.0405803 0.12711757
-0.18526673 0.38561633 -0.09634837 -0.11052622 -0.21051495 0.23155056 -0.0037590356 -0.31877327
-0.18115732 0.17177132 -0.07042509 0.21146505 0.015596039 -0.15952471 0.0045195688 -0.12515166
0.261493 -0.18769741 -0.2621167 -0.37786862 -0.3547917 -0.23529337 0.417501 0.055386025
-0.04143512 0.4990515 -0.17216963 0.10356863 0.030976696 -0.30376136 0.062441677 -0.15866897
00000000: 7b18 0abe eed8 48be d41a c1bb 7c9e a33e
00000010: 4f33 9a3e 21e4 9ebe 7d4c 303e 7df0 f23d
00000020: 4aaa a33e 2740 93be 7358 6b3e 940f 0fbe
00000030: 2106 83b9 bc1c 4c3e 8b11 7f3d 3199 96bd
00000040: 94d0 8abe 7c8d ac3e 6257 fb3d 2262 c13e
00000050: 58a0 7d3e c8a4 673e 97e4 0dbe 0130 4b3b
00000060: f6f4 5a3e fac3 01bf 169e df3c f802 363e
00000070: ffed 8cbe ef86 593e 8737 26bd 1c2b 023e
00000080: 90b6 3dbe 816f c53e 4b52 c5bd 925b e2bd
00000090: 3b91 57be 971b 6d3e 275a 76bb 4036 a3be
000000a0: 4e81 39be d2e4 2f3e 083b 90bd 4b8a 583e
000000b0: 8786 7f3c 725a 23be e418 943b c227 00be
000000c0: 69e2 853e c033 40be 2934 86be ff77 c1be
000000d0: 42a7 b5be bff0 70be b1c2 d53e 75dc 623d
000000e0: dfb7 29bd ae83 ff3e 3c4d 30be ca1b d43d
000000f0: d7c2 fd3c 9c86 9bbe d8c2 7f3d 1e7a 22be

fc3.bias f4 [2]
-0.05366697 0.07337301
00000000: e6d1 5bbd 9744 963d
